<class 'pandas.core.frame.DataFrame'>
RangeIndex: 35887 entries, 0 to 35886
Data columns (total 3 columns):
 #   Column   Non-Null Count  Dtype 
---  ------   --------------  ----- 
 0   emotion  35887 non-null  int64 
 1   pixels   35887 non-null  object
 2   Usage    35887 non-null  object
dtypes: int64(1), object(2)
memory usage: 841.2+ KB
None
Model: "sequential"
_________________________________________________________________
Layer (type)                 Output Shape              Param #   
=================================================================
conv2d (Conv2D)              (None, 46, 46, 64)        640       
_________________________________________________________________
conv2d_1 (Conv2D)            (None, 44, 44, 64)        36928     
_________________________________________________________________
max_pooling2d (MaxPooling2D) (None, 22, 22, 64)        0         
_________________________________________________________________
dropout (Dropout)            (None, 22, 22, 64)        0         
_________________________________________________________________
conv2d_2 (Conv2D)            (None, 20, 20, 64)        36928     
_________________________________________________________________
conv2d_3 (Conv2D)            (None, 18, 18, 64)        36928     
_________________________________________________________________
max_pooling2d_1 (MaxPooling2 (None, 9, 9, 64)          0         
_________________________________________________________________
dropout_1 (Dropout)          (None, 9, 9, 64)          0         
_________________________________________________________________
conv2d_4 (Conv2D)            (None, 7, 7, 128)         73856     
_________________________________________________________________
conv2d_5 (Conv2D)            (None, 5, 5, 128)         147584    
_________________________________________________________________
max_pooling2d_2 (MaxPooling2 (None, 2, 2, 128)         0         
_________________________________________________________________
flatten (Flatten)            (None, 512)               0         
_________________________________________________________________
dense (Dense)                (None, 1024)              525312    
_________________________________________________________________
dropout_2 (Dropout)          (None, 1024)              0         
_________________________________________________________________
dense_1 (Dense)              (None, 1024)              1049600   
_________________________________________________________________
dropout_3 (Dropout)          (None, 1024)              0         
_________________________________________________________________
dense_2 (Dense)              (None, 7)                 7175      
=================================================================
Total params: 1,914,951
Trainable params: 1,914,951
Non-trainable params: 0
_________________________________________________________________
Epoch 1/30
  1/301 [..............................] - ETA: 11:37 - loss: 1.9458 - accuracy: 0.1562
…
